checkpoint_magic-violet-19.pth (torch, 29207 bytes, 6 tensors)

fc1.weight f4 [64, 37]
0	0x3dc404f2	0.09571256
1	0xbd6be30d	-0.05758958
2	0xbe9f38d4	-0.31098044
3	0xbd3e97f0	-0.046531618
4	0xbecbb881	-0.39789203
5	0x3e0c8fe4	0.13726765
6	0xbe9ed912	-0.31024987
7	0x3e8ed68e	0.27898067
8	0xbdd0f38f	-0.10202705
9	0x3e04518a	0.1292173
10	0x3cf1f367	0.029535009
11	0xbc4c57f4	-0.0124721415
12	0xbeac3fc2	-0.33642393
13	0x3d02305b	0.031784397
14	0x3de096bb	0.109662496
15	0x3dd56046	0.10418753
16	0xbd3b4f66	-0.045730017
17	0xbe53473b	-0.20632641
18	0x3ea62f90	0.32458162
19	0x3d1ad884	0.03780414
20	0x3d8db367	0.06918984
21	0x3e3c0b52	0.18363693
22	0x3d8d2b1e	0.068929896
23	0x3de371a1	0.11105657
24	0xbe9dd4c3	-0.30826387
25	0x3cc9182f	0.024547664
26	0x3d93ac1c	0.07210562
27	0xbe6a96fd	-0.2290916
28	0x3d80c5cc	0.06287727
29	0xbdeae511	-0.11469472
30	0xbda8626f	-0.082219
31	0x3d4408a0	0.047859788
32	0x3d2a8432	0.041629978
33	0xbd1d2e20	-0.038374066
34	0xbecbc8de	-0.39801687
35	0x3d129c5b	0.035793643
36	0xbca695a3	-0.020335024
37	0x3e56ca4e	0.2097561
38	0x3e5fc011	0.21850611
39	0x3e620e20	0.22075701
40	0x3e5be755	0.21474965
41	0x3d8119fa	0.06303783
42	0x3e9212cb	0.28529963
43	0xbd5d74f7	-0.054066624
44	0xbd349ee4	-0.044096842
45	0xbe265f62	-0.16247323
46	0xbf007fb8	-0.50194883
47	0x3e1d5017	0.15362583
48	0x3e005d8b	0.12535684
49	0x3e3f8e56	0.1870664
50	0x3e946e08	0.28990197
51	0x3e895eeb	0.2683023
52	0x3e3fe8b7	0.18741117
53	0x3e1c06e8	0.1523701
54	0x3e3dbdaf	0.1852939
55	0x3e4f5873	0.20248584
56	0x3e1ce478	0.15321529
57	0x3dee751f	0.11643433
58	0x3da2f396	0.079566166
59	0xbda03a77	-0.07823651
60	0x3d38d603	0.045125972
61	0xbde06068	-0.10955888
62	0x3dfc3030	0.123138785
63	0x3dbe9059	0.09304876
64	0x3de7ac89	0.11312205
65	0x3e0ee435	0.13954242
66	0x3e06d91c	0.13168758
67	0x3e847bbc	0.25875652
68	0x3e7c387d	0.24630924
69	0x3e5c6237	0.21521841
70	0x3dcc17be	0.09965466
71	0x3df8a2c2	0.121404186
72	0xbafbf99d	-0.0019224171
73	0x3d0f4aa7	0.034983303
74	0xbe0b8fa6	-0.13629016
75	0x3d7e4ad0	0.062083066
76	0x3e192b1b	0.1495785
77	0x3e54d8da	0.20785847
78	0x3e1317ee	0.14364597
79	0xbf871816	-1.0554225
80	0x3e4e0084	0.20117384
81	0x3e7782f4	0.24171048
82	0x3e3a9a1e	0.18222854
83	0xbefca4b7	-0.49344417
84	0x3d55aaca	0.05216483
85	0x3d32529c	0.043535814
86	0xbb3777a2	-0.002799489
87	0xbe04e8b3	-0.12979393
88	0xbe880900	-0.26569366
89	0xbec324c0	-0.38113976
90	0x3e9ab72b	0.3021787
91	0x3e0c2407	0.13685618
92	0x3db8356c	0.089945644
93	0x3db45105	0.08804516
94	0xbf4767b2	-0.778926
95	0x3e03ce01	0.12871553
96	0x3dc420ec	0.09576592
97	0x3e1e4bc1	0.15458585
98	0xbe35b64b	-0.1774532
99	0x3c81205d	0.015762502
100	0x3e0475f9	0.12935628
101	0x3cab78aa	0.02093156
102	0xbd7db68e	-0.061941676
103	0x3ca7262a	0.02040394
104	0xbe22acd2	-0.15886238
105	0x3ce1bedb	0.027556827
106	0x3d8afa08	0.06785971
107	0xbe6280cf	-0.22119449
108	0xbea05cb3	-0.31320724
109	0x3c647551	0.013943986
110	0x3d11761a	0.03551302
111	0x3e3d270e	0.1847193
112	0x3dc5dcb6	0.09661238
113	0x3d3eb0c3	0.04655529
114	0x3e131071	0.1436174
115	0xbdf0c407	-0.11756139
116	0xbc482ae3	-0.012217256
117	0xbdd53ae8	-0.10411626
118	0x3e798166	0.24365768
119	0x3df13f83	0.11779692
120	0xbdae0ca5	-0.084985055
121	0xbde14a4f	-0.11000501
122	0x3e1962ad	0.14979048
123	0x3d486883	0.048927795
124	0x3ccad314	0.024758853
125	0x3cfd9811	0.0309563
126	0xbdbf23b3	-0.09332981
127	0x3d186681	0.03720713
128	0xbdc2fd24	-0.09520939
129	0xbded7dac	-0.11596236
130	0xbde8c433	-0.11365547
131	0xbe05939b	-0.13044588
132	0x3cdf688b	0.02727153
133	0x3e3ba120	0.18323183
134	0x3e0beaba	0.1366376
135	0xbdf86cbd	-0.12130115
136	0x3d35abcc	0.04435329
137	0x3dcce532	0.10004653
138	0x3e046433	0.12928848
139	0xbd7b6e7c	-0.061384663
140	0xbdf24969	-0.11830408
141	0x3ea85e95	0.3288466
142	0x3dd9f06f	0.10641562
143	0xbdd86629	-0.105663605
144	0xbf161569	-0.5862642
145	0xbf82ff50	-1.0234165
146	0x3d8d2d0b	0.06893357
147	0x3c91e9b5	0.017811636
148	0xbe96adac	-0.29429376
149	0xbe814a41	-0.25251964
150	0xbd00c6a4	-0.03143944
151	0xbe0578c1	-0.13034345
152	0x3e695211	0.22785212
153	0xbe593e4d	-0.21215172
154	0x3e9181cc	0.2841934
155	0xbd9eaf96	-0.07748334
156	0x3d4cafc7	0.04997232
157	0xbe968989	-0.29401806
158	0xbe1bbf74	-0.15209752
159	0x3cdfcd54	0.027319588
160	0xbd15cc34	-0.036571696
161	0xbe3ef80b	-0.18649308
162	0xbe880add	-0.26570788
163	0xbe5f6ae3	-0.21818118
164	0xbdbee51b	-0.09321042
165	0x3c580792	0.013185399
166	0xbb95e2c2	-0.004574151
167	0x3e85073a	0.25982076
168	0xbe13e3b9	-0.14442338
169	0xbd414999	-0.04718933
170	0xbc323060	-0.010875791
171	0xba92ad84	-0.0011190628
172	0xbdc9ffcd	-0.09863243
173	0xbe0cce2b	-0.13750522
174	0xbe08ba89	-0.13352408
175	0x3c72ccec	0.014819365
176	0x3e6c8991	0.23099352
177	0x3d82aec5	0.06380991
178	0x3d8bb6c2	0.06821968
179	0xbd510ab2	-0.05103559
180	0xbe84bb13	-0.25923976
181	0x3e140142	0.14453605
182	0x3f1654c0	0.5872307
183	0xbc954186	-0.01821972
184	0xbc89cf01	-0.01682234
185	0x3dd93bc2	0.10607101
186	0xbd792c24	-0.06083311
187	0xbddd6963	-0.108111165
188	0xbc49d66d	-0.0123191895
189	0x3d42c473	0.04755063
190	0x3e0e90a2	0.1392236
191	0x3d7d3f69	0.06182805
192	0x3e646fd4	0.22308284
193	0xbed34f66	-0.41271514
194	0xbfc7b7ca	-1.5602963
195	0xbe2142fa	-0.15748206
196	0xbe4108a4	-0.18850952
197	0x3cf51d42	0.029921178
198	0x3d337cb2	0.04382009
199	0x3da03e43	0.078243755
200	0xbe20213f	-0.15637682
201	0x3da305b6	0.07960074
202	0x3d4b56c4	0.049643293
203	0xbae113f9	-0.001717209
204	0x3db33cf3	0.087518595
205	0x3df3e27c	0.11908433
206	0xbd4d2c70	-0.050091207
207	0x3dc3593d	0.09538505
208	0x3dfc9987	0.123339705
209	0x3ea4743c	0.3211993
210	0xbd0a9e1f	-0.033842202
211	0xbe0bbd69	-0.13646473
212	0x3d1a2dc5	0.037641305
213	0x3e01b488	0.12666523
214	0x3e058fea	0.1304318
215	0xbd8ee6cd	-0.069776155
216	0xbd968050	-0.073486924
217	0x3d3da838	0.046303004
218	0x3e1075f4	0.14107496
219	0x3ceccf36	0.0289074
220	0xbb8a4d34	-0.004220629
221	0xbb456b09	-0.0030123612
222	0xbe45a14b	-0.1929981
223	0xbdfa38b4	-0.122178465
224	0x3e536bad	0.20646544
225	0xbe96873a	-0.29400045
226	0xbd844053	-0.06457581
227	0xbca74b44	-0.020421632
228	0x3dfc7501	0.12327004
229	0xbc4dac91	-0.01255335
230	0xbf176441	-0.5913735
231	0xbd93ff78	-0.07226461
232	0x3dac9929	0.084276505
233	0x3dc2be34	0.095089346
234	0x3deadb77	0.11467641
235	0xbf0796cd	-0.5296448
236	0xbdce6984	-0.10078719
237	0xbdf0321e	-0.11728309
238	0xbe87d61d	-0.26530543
239	0x3e4cdb91	0.20005633
240	0xbee0fcad	-0.43942776
241	0xbbea6f6e	-0.0071543967
242	0xbdffe9bd	-0.12495754
243	0xbc826451	-0.015916975
244	0x3e38cb77	0.18046366
245	0xbe7267e8	-0.2367245
246	0xbe3b2b3a	-0.18278208
247	0xbbf14971	-0.007363491
248	0xbe8f990c	-0.28046453
249	0x3ddc0efa	0.10745044
250	0xbeb98257	-0.36232254
251	0xbf2907e4	-0.66027665
252	0x3e8731fe	0.2640533
253	0xbe2f9580	-0.17146873
254	0xbe55a910	-0.20865273
255	0x3e3ea73e	0.18618485

fc1.bias f4 [64]
0	0x3e07f749	0.13277926
1	0x3e5708e0	0.2099948
2	0xbe394368	-0.1809212
3	0x3b92198a	0.004458611
4	0x3df021f6	0.117252275
5	0xbd2fec11	-0.04294974
6	0xbda94cfb	-0.08266636
7	0x3c24f2d4	0.01006766
8	0xbd516233	-0.05111904
9	0xbe4b6da8	-0.1986605
10	0x3dfa1155	0.12210337
11	0x3e70c191	0.2351134
12	0x3e7f2554	0.24916583
13	0x3d35a8e9	0.04435054
14	0xbdc45e81	-0.09588338
15	0xbd753408	-0.059864074
16	0x3ca882c4	0.020570166
17	0x3d22f42d	0.039783645
18	0x3c7dba25	0.015486275
19	0xbe38780e	-0.18014547
20	0xbdb03066	-0.08602981
21	0x3d962690	0.07331574
22	0xbc7897b9	-0.015172892
23	0xbcd7df23	-0.026351517
24	0xbdc5ac8e	-0.09652053
25	0x3dad4620	0.08460641
26	0xbdd258f9	-0.102708764
27	0xbe94cb95	-0.2906157
28	0x3d9cf682	0.07664205
29	0x3cf6d203	0.030129438
30	0xbb85b56d	-0.0040804655
31	0xbe60fe56	-0.21972021
32	0x3e15180e	0.14559957
33	0x3d8e5011	0.06948865
34	0xbdeb578a	-0.11491306
35	0x3d9283c5	0.07154039
36	0xbccd05c8	-0.02502717
37	0x3dd47776	0.10374348
38	0xbd396ac5	-0.04526784
39	0xbc0d8418	-0.008637451
40	0xbca43120	-0.020042956
41	0xbda43d96	-0.08019559
42	0xbe358b6f	-0.17728971
43	0x3e86c8b9	0.26325014
44	0x3db7f1b3	0.08981647
45	0xbd1fb6ab	-0.038992565
46	0xbde5769e	-0.11204265
47	0xbe75dc5d	-0.24009843
48	0xbe6b192b	-0.2295882
49	0xbc501b94	-0.012701888
50	0xbe12a90a	-0.14322296
51	0x3d965665	0.07340697
52	0x3c740bd4	0.014895398
53	0xb9b77568	-0.00034991954
54	0xbe4866b4	-0.19570428
55	0xbd6a041c	-0.057132825
56	0x3def2a1f	0.11677956
57	0xbde46945	-0.11152891
58	0xbdc0c8a1	-0.09413267
59	0xbe07689f	-0.13223504
60	0xbcd97cf2	-0.026548836
61	0xbb7c9438	-0.0038540494
62	0x3e4a212d	0.19739218
63	0xbc3adb61	-0.011404843

fc2.weight f4 [64, 64]
0	0xbdec617e	-0.11542033
1	0xbe28e44c	-0.16493338
2	0x3e56eefe	0.20989606
3	0x3e711d71	0.23546387
4	0x3d8d96e2	0.06913544
5	0x3d9f8af7	0.07790177
6	0xbeaa37bb	-0.33245644
7	0xbc446618	-0.011987232
8	0x3e4b9694	0.1988166
9	0xbca2108f	-0.019783286
10	0xbea01ae3	-0.31270513
11	0xbd505bc6	-0.050868772
12	0xbe11b03d	-0.14227386
13	0x3e5ee9e7	0.21768914
14	0xbbfe242a	-0.007755776
15	0xbf38acf2	-0.72138894
16	0x3e25d073	0.16192798
17	0xbdd97623	-0.10618236
18	0x3de4ba94	0.111683995
19	0x3e265853	0.1624463
20	0xbd8b3c46	-0.067986056
21	0xbe34616e	-0.17615291
22	0x3dbfc438	0.09363598
23	0xbd8a8319	-0.06763286
24	0xbe6e937b	-0.23298447
25	0xbedf3fea	-0.4360345
26	0xbdb0ef90	-0.08639443
27	0x3e511ef8	0.2042197
28	0x3d6b3de5	0.057432074
29	0x3e9ebf9f	0.3100557
30	0x3e8579d5	0.26069513
31	0x3e6475f2	0.22310618
32	0x3dd68165	0.10473899
33	0x3ea821d4	0.3283831
34	0x3e9cbb2a	0.30611545
35	0xbe19dd10	-0.15025735
36	0x3c9561fd	0.018235201
37	0x3e402910	0.18765664
38	0xbd4b1dc8	-0.04958895
39	0x3d27d6d8	0.040976375
40	0xbe885647	-0.26628324
41	0xbe8ed2b0	-0.27895117
42	0x3c87094f	0.01648393
43	0xbde62bb4	-0.112388045
44	0x3d006145	0.031342763
45	0xbda99bc5	-0.08281664
46	0xbe0624bf	-0.13099955
47	0x3b76e3a6	0.003767231
48	0xbebbb8f7	-0.36664554
49	0xbd37ce48	-0.04487446
50	0xbeab95e8	-0.33512807
51	0xbd967408	-0.0734635
52	0xbe27a57d	-0.16371723
53	0x3e4ea755	0.2018102
54	0xbdafdc9d	-0.085870005
55	0xbe39b272	-0.18134478
56	0xbdb5841b	-0.08863088
57	0x3d7eeed5	0.062239487
58	0x3e2ef53d	0.17085738
59	0xbd4a1e08	-0.049345046
60	0xbe0935ae	-0.13399383
61	0x3dba35f3	0.09092321
62	0x3e87bd8c	0.265118
63	0xbdb429a6	-0.08797006
64	0x3d060160	0.032716155
65	0x3de500b7	0.11181777
66	0xbe0ee939	-0.13956155
67	0x3c958e27	0.01825626
68	0xbc48ecf7	-0.012263528
69	0x3db98ff7	0.09060662
70	0x3e033516	0.1281322
71	0x3e645512	0.22298077
72	0xbe0cc14e	-0.13745615
73	0x3d491816	0.049095236
74	0xbd7539f5	-0.059869725
75	0x3ed2c0ab	0.4116262
76	0xbe620012	-0.2207034
77	0xbd8a58b6	-0.067552015
78	0x3d5ca847	0.05387142
79	0xbe1c900d	-0.15289326
80	0x3dd0a9c5	0.10188631
81	0xbe123006	-0.14276132
82	0x386069a6	5.3504154e-05
83	0x3e582e18	0.21111333
84	0xbe9b6f7a	-0.30358487
85	0xbcc2272a	-0.023700316
86	0x3e1e9556	0.15486655
87	0x3b1ceb0b	0.0023943807
88	0xbd72fbfd	-0.059322346
89	0xbe522b14	-0.20524246
90	0xbebeb75b	-0.37249264
91	0xbd52f9fe	-0.051507942
92	0xbd1e627e	-0.03866815
93	0xbe3e7250	-0.18598294
94	0xbdd66295	-0.10468022
95	0x3c7d9467	0.015477276
96	0xbdbdcaa9	-0.0926717
97	0xbe0360b5	-0.1282986
98	0x3e90db02	0.2829209
99	0xbe45e870	-0.19326949
100	0xbdaab5da	-0.08335467
101	0x3e31e6c2	0.17373183
102	0xbddc1475	-0.10746089
103	0xbea8bc6c	-0.32956254
104	0xbe9d3863	-0.30707082
105	0xbd92c905	-0.07167248
106	0x3e830399	0.25588682
107	0xbe0136dd	-0.12618585
108	0xbe069bb1	-0.13145329
109	0xbe3b14fc	-0.18269724
110	0xbe47da8c	-0.19516963
111	0x3c857862	0.016292755
112	0xbd6865f5	-0.05673786
113	0xbe12af14	-0.143246
114	0xbe5e4f62	-0.2170997
115	0x3e637962	0.22214273
116	0xbe755cc0	-0.23961163
117	0xbd6060c5	-0.054779787
118	0xbd2dd4a6	-0.042439125
119	0xbcf5da92	-0.030011449
120	0xbc7d4312	-0.015457885
121	0xbe6c4cee	-0.23076221
122	0x3e792b5a	0.24332944
123	0xbc7d91b2	-0.015476631
124	0xbc2f2c12	-0.0106916595
125	0x3c9b4108	0.018951908
126	0x3d966d63	0.073450826
127	0x3cfbf9b6	0.03075872
128	0x3e820b76	0.2539937
129	0xbe009ff8	-0.12561023
130	0xbe8a962a	-0.2706769
131	0xbe97ac36	-0.29623574
132	0x3dd00ef9	0.10159106
133	0x3e5d4a95	0.21610482
134	0xbe7cb5e1	-0.24678756
135	0xbc0e49d3	-0.008684593
136	0xbe694701	-0.22780992
137	0x3d278483	0.040897857
138	0xbd6114a1	-0.054951314
139	0x3c0b5b69	0.008505681
140	0xbd9a7801	-0.0754242
141	0x3d9dc55d	0.0770366
142	0xbe5cf0b8	-0.21576202
143	0xbd75c265	-0.059999842
144	0xbe69018c	-0.22754496
145	0x3e467881	0.19381906
146	0x3e43493a	0.19070902
147	0xbef74df8	-0.48301673
148	0xbd762d57	-0.060101833
149	0x3e6d8891	0.23196627
150	0xbe9393b2	-0.2882362
151	0x3c14f8c3	0.009092513
152	0x3dbc955b	0.09208175
153	0xbcd1aebb	-0.025596013
154	0x3e8b69b5	0.27229086
155	0xbebeebd9	-0.37289312
156	0xbcf930fa	-0.030418862
157	0xbd070bdd	-0.032970298
158	0xbd3cb5cf	-0.046071824
159	0xbe5da533	-0.2164505
160	0xbf1243e2	-0.5713483
161	0xbe9f8e91	-0.31163457
162	0xbd5ffee8	-0.054686457
163	0x3cb45249	0.022011893
164	0x3e1157ec	0.14193696
165	0x3e696fc6	0.22796544
166	0x3e53fd76	0.20702156
167	0xbf2ae8b4	-0.66761327
168	0x3efe45bf	0.49662587
169	0xbf12c75c	-0.5733545
170	0x3d8146a7	0.06312304
171	0xbc10935b	-0.008824195
172	0x3bb8c442	0.00563863
173	0xbe8fb18b	-0.28065142
174	0xbc1304d9	-0.008973324
175	0x3db73d1c	0.089472026
176	0x3e00471e	0.12527129
177	0xbdfd83fb	-0.12378689
178	0x3cdd8f29	0.027045803
179	0xbd66615e	-0.0562452
180	0xbdd40ea2	-0.103543535
181	0xbe130232	-0.14356306
182	0x3e035b28	0.12827742
183	0xbdfcecac	-0.12349829
184	0xbd4faa2a	-0.05069939
185	0x3db077b2	0.0861658
186	0xbd6455a9	-0.055745754
187	0x3e986116	0.2976157
188	0x3da61487	0.08109384
189	0x3e411550	0.18855786
190	0xbd7b3faf	-0.06134003
191	0xbe65c3e9	-0.22438015
192	0x3c801f97	0.015640063
193	0xbe20ba21	-0.15696003
194	0xbd9127e9	-0.070876904
195	0xbde8ad96	-0.11361234
196	0x3bd997de	0.0066404184
197	0x3d8d344f	0.06894743
198	0x3d6744d3	0.05646212
199	0xbe571730	-0.21004939
200	0xbd8f0c76	-0.069847986
201	0x3dad385a	0.08458014
202	0xbd9653c6	-0.07340197
203	0x3e2181ed	0.15772219
204	0xbded5b9c	-0.11589739
205	0x3e0c8295	0.13721688
206	0x3e41e9dd	0.18936868
207	0x3d321e7c	0.043486103
208	0xbd61bb8c	-0.0551105
209	0xbd39fbf1	-0.045406286
210	0x3c7f4e5e	0.015582649
211	0x3d154c33	0.036449622
212	0x3a069907	0.0005134497
213	0xbd9cf556	-0.076639816
214	0xbc7b7515	-0.015347739
215	0x3ef3eee8	0.47643209
216	0x3f148568	0.5801606
217	0xbda051df	-0.07828116
218	0x3b13b560	0.0022538528
219	0x3ded594d	0.115892984
220	0xbd8a0ea0	-0.06741071
221	0x3ce072fa	0.027398575
222	0x3dfff604	0.12498096
223	0x3d8e92f2	0.06961621
224	0xbeba8343	-0.3642827
225	0xbe037acf	-0.12839817
226	0x3dbad851	0.0912329
227	0xbaa84c86	-0.0012840189
228	0x3deed8cb	0.11662444
229	0x3de00878	0.10939115
230	0x3e0ee631	0.13954999
231	0x3c94941e	0.018137034
232	0xbc3ec7af	-0.011644288
233	0x3dc8ebb9	0.098105855
234	0x3a4ad335	0.0007737161
235	0xbd4daea0	-0.050215364
236	0xbe017ef3	-0.12646084
237	0x3dfdf5af	0.12400376
238	0x3d8ba129	0.06817848
239	0x3d441f12	0.047881193
240	0x3df2f4ae	0.11863075
241	0x3e1495d0	0.14510274
242	0xbd42a3c2	-0.047519453
243	0x3d42eb11	0.047587458
244	0x3d44f687	0.04808667
245	0x3f066fdc	0.52514434
246	0x39fe4110	0.0004849513
247	0x3d0989a5	0.033578534
248	0xbc7e2574	-0.015511859
249	0xbe9b97ec	-0.30389345
250	0x3d8a151b	0.06742307
251	0x3d8572d0	0.06516039
252	0x3e106242	0.14099982
253	0x3b4e7651	0.0031503628
254	0xbe664803	-0.22488408
255	0x3c3a3377	0.011364809

fc2.bias f4 [64]
0	0xbd4f4dae	-0.05061119
1	0x3c5285ba	0.012849266
2	0x3d65d619	0.056112383
3	0xbdb25a43	-0.08708622
4	0x3e7fbe01	0.24974824
5	0xbc6d4a01	-0.014482976
6	0x3d48c23a	0.049013354
7	0xbc43626c	-0.011925321
8	0x3ebdcb78	0.37069297
9	0x3f187146	0.5954784
10	0xbe618b4e	-0.22025797
11	0x3da21a1c	0.07915136
12	0x3e8b0c17	0.2715766
13	0xbdf26dee	-0.11837374
14	0xbdf032bd	-0.117284276
15	0x3d230c0e	0.039806418
16	0x3df448ef	0.119279735
17	0xbd1e960b	-0.03871731
18	0xbdd75217	-0.10513704
19	0x3eb7a087	0.3586466
20	0x3ca48c3a	0.020086396
21	0x3efaf365	0.4901382
22	0xbdd34c2e	-0.103172645
23	0xbdee6757	-0.11640804
24	0xbdbed623	-0.09318187
25	0xbdc9f2ed	-0.098607875
26	0x3de62d96	0.112391636
27	0xbd9cb67c	-0.07651994
28	0x3c1075cf	0.00881715
29	0x3dc1a35a	0.09454985
30	0x3ce691c9	0.028145688
31	0x3dbe699e	0.09297489
32	0xbd964a1f	-0.07338356
33	0x3dca083c	0.09864852
34	0x3cae0221	0.02124125
35	0xbdcab7fb	-0.09898373
36	0xbe692d27	-0.2277113
37	0xbe643a71	-0.22287919
38	0xbd6656d8	-0.056235164
39	0x3c5a21d5	0.01331373
40	0xbe0111e4	-0.12604481
41	0x3f2d06ff	0.675888
42	0x3ebcf140	0.3690281
43	0xbd227bf6	-0.039669
44	0xbdfc0847	-0.12306266
45	0xbddc9fc6	-0.10772662
46	0x3efc1c76	0.49240464
47	0xbd4a3220	-0.04936421
48	0x3d85ff8a	0.06542881
49	0xbe165bae	-0.1468341
50	0x3d5490b2	0.051895805
51	0x3f15e858	0.58557653
52	0x3e554f72	0.20831087
53	0xbe21bd40	-0.1579485
54	0x3d919799	0.07108993
55	0xbe87f24c	-0.26552045
56	0xbe7df4fc	-0.24800485
57	0xbdfff3aa	-0.12497647
58	0x3d09a5b1	0.03360528
59	0xbd721614	-0.059103087
60	0x3d7ab811	0.061210696
61	0x3ef6401c	0.48095787
62	0x3d4124d1	0.04715425
63	0xbdcab668	-0.098980725

fc3.weight f4 [4, 64]
0	0x3e20f584	0.15718657
1	0x3e27bdbe	0.16380975
2	0x3d36598d	0.044518996
3	0xbe0a3423	-0.13496451
4	0x3e599d9d	0.21251531
5	0x3e7c74c4	0.24653918
6	0x3e878abb	0.2647303
7	0xbec26405	-0.37966934
8	0x3dfb9995	0.12285153
9	0x3e1fcd7a	0.15605727
10	0xbe43fe80	-0.19140053
11	0xbe379e99	-0.17931594
12	0x3e5440f1	0.20727898
13	0x3e4a0ef9	0.19732274
14	0xbe287c2d	-0.1645362
15	0x3cd1bf92	0.025604043
16	0x3e8e46f2	0.27788502
17	0x3dd6ab02	0.10481836
18	0x3d7be113	0.061493944
19	0x3e5c1a43	0.21494393
20	0xbebbacc4	-0.36655247
21	0x3eda718a	0.42664748
22	0xbe2c8973	-0.16849308
23	0xbd0115ec	-0.031515047
24	0xbdca37af	-0.09873902
25	0xbef55159	-0.47913626
26	0xbe516f38	-0.20452583
27	0xbcfddfd5	-0.03099052
28	0x3ee7ce21	0.4527445
29	0x3daae39b	0.083441935
30	0xbf54eb69	-0.8317171
31	0x3ddd4da4	0.108058244
32	0xbe9a07f9	-0.30084208
33	0x3ec28f40	0.37999916
34	0x3edfc949	0.43708256
35	0xb955ea0d	-0.00020400454
36	0xbe33c6e4	-0.1755634
37	0xbe1f1bb0	-0.15537906
38	0xbe40b0e7	-0.18817483
39	0x3d6e8dee	0.058240823
40	0x3c6222ee	0.013802273
41	0x3e432d9a	0.19060364
42	0x3e942671	0.28935578
43	0x3d8aaef6	0.067716524
44	0xbe1bf2eb	-0.15229385
45	0x3e4ab101	0.19794084
46	0x3e81f0fd	0.25379172
47	0x3e24f5ed	0.16109438
48	0xbd1d3160	-0.038377166
49	0x3e0f5aa5	0.13999422
50	0x3d67ebb5	0.056621272
51	0x3e344de6	0.17607841
52	0x3e868d53	0.26279697
53	0xbf01bdbf	-0.50680155
54	0xbba2eb1c	-0.004971875
55	0xbe46e413	-0.19422941
56	0xbe0f6db5	-0.14006694
57	0xbc40f8b6	-0.011778047
58	0x3e0c2e57	0.13689552
59	0x3d8c4253	0.06848588
60	0x3d72939b	0.0592228
61	0x3e5e069a	0.21682206
62	0x39a14a8e	0.0003076386
63	0x3db516e4	0.08842257
64	0x3ed84d15	0.4224631
65	0x3e4c5ed9	0.19958057
66	0x3e888d63	0.2667037
67	0xbe9cd45e	-0.30630773
68	0x3e28ca7d	0.16483493
69	0x3ebb0b1b	0.3653191
70	0x3ea2ca7d	0.3179511
71	0xbe407cb8	-0.18797576
72	0x3e0ab9a8	0.13547385
73	0x3e5fec1b	0.21867411
74	0xbcebd463	-0.028787797
75	0x3ca36256	0.019944351
76	0x3e231940	0.15927601
77	0x3dc32c93	0.09529986
78	0xbd5cc14c	-0.05389528
79	0x3d796d13	0.060895037
80	0x3ed71c5d	0.42013827
81	0x3e196b8b	0.1498243
82	0xbec54dfb	-0.38536057
83	0x3e03b889	0.12863363
84	0xbc8a29e6	-0.016865682
85	0x3ebdc8d3	0.3706728
86	0xbe73adf5	-0.23796828
87	0x3dba3d55	0.090937294
88	0xbd9f8b3d	-0.077902295
89	0xbdecbc72	-0.115593806
90	0x3d5d9e6d	0.054106165
91	0xbd80ad46	-0.06283049
92	0x3eb112a1	0.34584525
93	0x3e8cbd3b	0.2748812
94	0xbd14a6b9	-0.03629181
95	0x3e20b44c	0.15693778
96	0xbe85e828	-0.26153684
97	0x3ee88f42	0.45421797
98	0x3ea6efeb	0.32604918
99	0xbd73951e	-0.05946838
100	0xbdd20ac1	-0.102559574
101	0xbe689649	-0.22713579
102	0x3c8511a6	0.016243767
103	0x3e6e82ad	0.23292036
104	0x3d52b4e9	0.05144206
105	0x3e7214a5	0.23640688
106	0x3e858e97	0.2608535
107	0x3ebb084d	0.3652977
108	0xbe636592	-0.22206715
109	0x3caac956	0.020847958
110	0x3e681c86	0.22667131
111	0x3f12e6ed	0.57383615
112	0x3d81bd8e	0.06334983
113	0x3e74e4db	0.23915426
114	0x3e4214ad	0.189532
115	0x3dd58b3e	0.10426949
116	0x3e89e799	0.26934507
117	0xbe82828e	-0.2549023
118	0x3dd02461	0.10163189
119	0xbe276136	-0.16345677
120	0xbe8d04b5	-0.27542654
121	0xbe93e6d7	-0.28887054
122	0x3e99c65e	0.30034155
123	0xbe336914	-0.17520553
124	0x3c048ed0	0.00809069
125	0x3e2cf568	0.1689049
126	0xbea8d5f4	-0.32975733
127	0xbdb6131a	-0.08890362
128	0x3ddda0e0	0.108217
129	0x3e8d42c0	0.2758999
130	0x3e903618	0.2816627
131	0x3c8331ff	0.016015051
132	0x3e6193e7	0.22029077
133	0x3df96fb9	0.121795125
134	0x3ed2abb5	0.41146627
135	0x3c0008b2	0.007814573
136	0x3dad2394	0.084540516
137	0x3e2efb67	0.1708809
138	0xbe1e3243	-0.15448861
139	0x3ea5a601	0.32353213
140	0x3e899c47	0.26877043
141	0xbef3a684	-0.4758798
142	0xbeae5e9e	-0.34056562
143	0x3e2f6714	0.17129165
144	0x3dbdf608	0.09275442
145	0x3dc51663	0.096234106
146	0xbed92aca	-0.42415458
147	0x3e0f166c	0.13973397
148	0xbdbf638f	-0.09345161
149	0x3ea72946	0.32648677
150	0xbe9a40fb	-0.301277
151	0x3cab99ee	0.020947423
152	0x3eb3fceb	0.351539
153	0xbda83d36	-0.082148
154	0xbe6e3191	-0.23261096
155	0xbecf88f3	-0.4053417
156	0x3ea089d2	0.3135515
157	0x3ec5d19a	0.38636476
158	0xbde24874	-0.110489756
159	0xbc886ad9	-0.016652511
160	0xbdc181fe	-0.09448622
161	0x3cd0da32	0.025494669
162	0x3e5af528	0.21382582
163	0x3db05b41	0.08611155
164	0x3c1e0dd0	0.009646848
165	0xbd80eefb	-0.06295582
166	0xbe4e7e8a	-0.20165458
167	0xbcd092f7	-0.025460703
168	0xbf1f8d82	-0.623253
169	0x3e6a3d05	0.2287484
170	0x3e5fd1c1	0.21857359
171	0x3e406088	0.18786824
172	0xbe0b4217	-0.1359943
173	0x3e456d6e	0.19280025
174	0x3e6715bd	0.22566886
175	0x3f61192e	0.87929046
176	0x3e754f14	0.23955947
177	0x3f001a59	0.50040203
178	0x3d97c2b2	0.07410182
179	0x3e972d8a	0.2952693
180	0x3e10e6bc	0.14150518
181	0x3e389632	0.18026045
182	0x3e371da1	0.17882396
183	0x3cd073c2	0.025445823
184	0xbe9ecb1c	-0.31014335
185	0xbbe64b92	-0.0070280517
186	0xbd380414	-0.044925764
187	0xbd310b41	-0.043223623
188	0xbea7243f	-0.3264484
189	0x3e644add	0.22294183
190	0xbdd883ac	-0.105719894
191	0xbea62cf6	-0.32456177
192	0x3e67adab	0.22624843
193	0x3e8232c5	0.2542936
194	0xbe2ee6d7	-0.17080246
195	0xbebf9f09	-0.37426022
196	0xbc0942e1	-0.008377762
197	0x3ea56187	0.3230097
198	0x3ea4a52c	0.32157266
199	0xbc53c03e	-0.012924252
200	0x3e155c75	0.14586051
201	0x3e84911a	0.25891954
202	0xbd59d3bb	-0.053180438
203	0xbe97b6d8	-0.29631686
204	0x3e00e113	0.12585859
205	0x3e5684a7	0.2094904
206	0xbd8ef5be	-0.06980465
207	0xbe03a873	-0.12857227
208	0x3effea07	0.49983236
209	0x3e9fe9b3	0.31232986
210	0x3db8376c	0.08994946
211	0x3e0d3eee	0.13793537
212	0x3e233b8a	0.15940681
213	0x3e99f52c	0.30069864
214	0x3e2df6ac	0.16988629
215	0x3d6221b5	0.055207927
216	0x3d988b02	0.07448389
217	0xbeba27b5	-0.3635842
218	0xbee1ecae	-0.44125885
219	0x3eb58534	0.35453188
220	0x3ecb62e2	0.3972388
221	0x3e2b1109	0.16705717
222	0xbe09f7d6	-0.13473448
223	0x3e4e373d	0.20138259
224	0xbeecb979	-0.46235254
225	0xbc2ec9e7	-0.010668254
226	0x3e8aab4e	0.2708382
227	0x3c754cd7	0.014971933
228	0xbe4ce7ad	-0.20010252
229	0xbe586e30	-0.21135783
230	0x3e091912	0.1338847
231	0x3ebf6730	0.37383413
232	0xbf1121f3	-0.5669243
233	0x3e93d42a	0.28872806
234	0x3e911798	0.28338313
235	0xbeec697e	-0.46174234
236	0xbd63311a	-0.05546675
237	0xbdbc3cfd	-0.0919132
238	0x3e2f11a6	0.17096576
239	0x3e18a44e	0.14906427
240	0x3e00d02e	0.12579414
241	0x3d1b1c3c	0.037868723
242	0x3ead43dd	0.33840838
243	0x3e55ea77	0.20890222
244	0x3e068bdd	0.13139291
245	0x3e277a4f	0.16355251
246	0x3e99e7f4	0.3005978
247	0x3e254bec	0.16142243
248	0xbea49f97	-0.32153007
249	0xbeb7b684	-0.35881436
250	0xbf048ad2	-0.51774323
251	0xbf052963	-0.52016276
252	0xbeaf14e0	-0.34195614
253	0x3e1e7487	0.15474139
254	0xbe6e7a95	-0.23288949
255	0x3e4455c8	0.19173348

fc3.bias f4 [4]
0	0x3eef7a35	0.46772924
1	0x3ebe42ef	0.3716044
2	0x3e86d148	0.26331544
3	0x3e8b2529	0.27176788
