checkpoint_neat-fog-17.pth (torch, 29207 bytes, 6 tensors)

fc1.weight f4 [64, 37]
00000000: 82b5 f9bb 9078 24bd e289 dd3d dc0f 8bbe
00000010: aec7 51bd ff62 043d 0f37 973d 5689 2b3e
00000020: 70d8 35be 32b2 25be ddd9 b33e d06c 3ebf
00000030: aafb debe d280 2abf 5c62 a1bf 6195 473c
00000040: 4926 a23c 7be6 ff3d 2a57 82bc 0f99 a4bd
00000050: df0a 013e cfc9 ae3d e391 8dbd 7605 b93e
00000060: bfd7 353e 3d12 bb3d c757 c7bd e7fd 91bd
00000070: dcf2 943d 5389 1d3e 6180 14be 5db7 1d3e
00000080: c01a 2bbd 8e6b 983d 5ef4 73bd 5374 8b3c
00000090: 2f98 193b f0dc 8d3e 091a 1ebe 0e31 30bd
000000a0: f5a1 583e e1d0 52be 8826 e1bc 230e 2cbf
000000b0: ee7f e53b e783 6cbe 4cd8 8abf ed3c 2dbe
000000c0: ffef 9b3d ebb3 bcbd 988e a33e 42db 103e
000000d0: d14b 41bd 77ed eb3d f989 6a3c 74fe 473e
000000e0: c050 b73d 7189 46bd 690a 83be 6d79 f13d
000000f0: 4638 2d3d 58df 0abd f70c 68be 3dd8 663e
00000100: fa5b 32be a73f 0e3e 67bd 0c3f 65f8 943d
00000110: 533d 943e e1be 8a3d 7561 87bd 355b a2be
00000120: abe5 5bbd 892c 00bd e5b6 273c d10c 54bd
00000130: 7329 553e da0e e93d 4b71 f9be 84a6 25bf
00000140: 4dc7 a9be 093b c23e 240a d43d b6f8 8bbf
00000150: da49 8e3a ecd5 04bc b51d cd3c c1af 27be
00000160: 94be b5bd 4803 10bd eab8 643d 905c 033e
00000170: 7ec1 453e 00fe 93bd 9af7 aabd b529 2b3e
00000180: f8e1 c8bd 8264 eebd 6def 07be 3a5d 043e
00000190: cb1a 0ebc 7053 c6bd b02e 393e bb6d eebe
000001a0: 9f82 1abf 3e66 66be bdd8 e83c 3eb3 01bf
000001b0: cb05 e0bd 9f7c 0f3e fc12 1cbe b9a6 eb3e
000001c0: f209 04bf a86f f9bd 92b8 76be e023 00c0
000001d0: 38eb edbc ffdb f23d e3eb 653d d1ac a73c
000001e0: 86e8 1a3e cf6a b33d de9d bf3d b711 c73c
000001f0: c0fd 4dbd 9776 0fbe f289 1d3c 2542 33bd
00000200: 9b37 04bd 39e1 c2bd ce11 1a3e 77e9 e53d
00000210: 5a67 12be 3363 5c3b aeae 133e aaae 853d
00000220: cce7 9d3d 3997 cdbd 9464 d33d 8c59 563e
00000230: 5777 083e da1c 193e b35b 643d 5c63 c93d
00000240: 4652 903d 7718 1ebd 9f43 993d 46a2 c4bb
00000250: 1596 ffbc 7d3b 26be 6d32 e8bd 8a8c 1dbf
00000260: cebb d73d 189e 52be fc71 fabb aad3 c23e
00000270: ac43 e3bc b62d 96bf 55cf 4c3e f38a aebd
00000280: 28e2 46be 2a79 e0be f3ed 3cbf 5143 33bf
00000290: fae2 943d df7c 40bd 01d1 2dbd 0e0b 43be
000002a0: 5cd9 1ebe d2f1 a93e a77c 5fbe 16f9 2fbe
000002b0: 09b6 5fbd 2ee7 03be 3ab9 babb 678f 523e
000002c0: e8f4 b7bd 3b96 0ebe e94e 7f3e d688 86bf
000002d0: 0c06 bf3d c816 01bf 6d86 39bf c032 a6bd
000002e0: a8f8 e33b f679 8bbd 7ee6 e83b 7771 1cbd
000002f0: 3be1 5abc e88e eabd 84d4 f43d 4c77 bf3b
00000300: 207c 12be fd96 3abd 1ba8 753d 0594 7dbc
00000310: 9c13 43be 8f0d 3a3c f4a7 febc 0826 31bd
00000320: 4e01 943d 4c7f 2ebd f71c 12be f631 33be
00000330: deb9 e8bb b7ef fc3d 3211 9c3d 8a10 a9bc
00000340: 62ef 3f3e 2d3d 013e 6c58 4ebe 23c6 a2bc
00000350: dbe8 2c3e 00cd bd3d 480c bb3d 6181 02be
00000360: 0fc4 5cbd 4059 43be 10c8 0b3e b56b 253e
00000370: 3387 633e d115 213d 0f17 7a3d c096 9bbe
00000380: ef3d 193d 732f 82bd 298c c8bd eee1 7abc
00000390: 2f32 32bd 4b10 bcbd ad6c a3be cf60 223e
000003a0: cb18 20bf ff53 9c3e b434 8f3d bb00 c6be
000003b0: a51a aebe 9c4a 163e 856e 01be 4f0f 1dbe
000003c0: 9647 94be 18c6 e9be 466c 57be 2298 7ebe
000003d0: a885 393e cb39 5cbf b58c 8dbe a1ec 7dbe
000003e0: 969c 1bbd 052d 74be 6f31 e9bc 87a4 103e
000003f0: 399b 823e 91ba 0ebf 8c85 b4be 5505 6ebe
-0.0076205144 -0.04015404 0.10817315 -0.27160537 -0.05121582 0.032320973 0.073835485 0.16751608
-0.17758346 -0.16181257 0.35127154 -0.74384785 -0.4355138 -0.66602814 -1.2608142 0.012181611
0.019793646 0.124951325 -0.015910704 -0.08037006 0.12601803 0.08534586 -0.06912591 0.3613698
0.17758082 0.09134338 -0.09733539 -0.07128506 0.07272884 0.15384416 -0.14502098 0.15401979
-0.041773558 0.074423894 -0.05955922 0.017023241 0.0023436656 0.27707624 -0.15439619 -0.043015532
0.21155532 -0.20587493 -0.027484193 -0.6720907 0.007003776 -0.23097192 -1.0847259 -0.16917773
0.07614135 -0.09214004 0.31944728 0.1414614 -0.047191445 0.11519902 0.014315122 0.1953066
0.08950949 -0.048470918 -0.2559388 0.11790738 0.042289995 -0.033904403 -0.22661196 0.22543426
-0.17417899 0.13891469 0.54976505 0.0727394 0.28953037 0.067746885 -0.06610385 -0.3171021
-0.053685825 -0.031292472 0.010236477 -0.051770035 0.20816593 0.11379786 -0.48719248 -0.6470721
-0.33159867 0.37935665 0.10353497 -1.0935276 0.001085575 -0.008107644 0.02503858 -0.16375639
-0.088742405 -0.03515938 0.05584041 0.12828279 0.19312093 -0.07226181 -0.083480075 0.16715129
-0.09808725 -0.11640264 -0.13274927 0.12926188 -0.00867338 -0.09683883 0.18084216 -0.46568093
-0.6035556 -0.2249994 0.028423661 -0.50664127 -0.10938605 0.14012383 -0.15241617 0.46025637
-0.51577675 -0.121795 -0.24093845 -2.0021896 -0.029042825 0.11858367 0.056133162 0.020468147
0.15127763 0.087606065 0.09356283 0.02430044 -0.050290823 -0.14010082 0.009615408 -0.043764252
-0.032279592 -0.09515614 0.15045854 0.112261705 -0.14297238 0.0033628463 0.14422104 0.06527455
0.07710227 -0.10038609 0.10321918 0.20932597 0.13326775 0.14952412 0.055751514 0.098334044
0.070469424 -0.03859755 0.07483601 -0.00600079 -0.031199494 -0.1623363 -0.11337743 -0.6154257
0.10533868 -0.2056812 -0.0076429825 0.38052112 -0.02774223 -1.17327 0.20000966 -0.08522596
-0.1942221 -0.4384244 -0.7380058 -0.7002459 0.07269855 -0.046994086 -0.04243565 -0.19047186
-0.15512604 0.33192307 -0.21824895 -0.17184862 -0.05461696 -0.12881157 -0.0056983503 0.20562516
-0.08982259 -0.13924496 0.24932446 -1.0510509 0.09327325 -0.50425386 -0.7247074 -0.081151485
0.0069571324 -0.068103716 0.007107555 -0.038194146 -0.013359363 -0.114530385 0.11954597 0.0058430787
-0.14305162 -0.04555415 0.05997477 -0.015477185 -0.19050449 0.011355772 -0.031085946 -0.04324916
0.07226811 -0.04260187 -0.14268862 -0.17499527 -0.007102235 0.123504095 0.07620467 -0.02063777
0.18743661 0.12620993 -0.20150918 -0.01986987 0.16885702 0.09267616 0.09133202 -0.12744667
-0.053897914 -0.19077015 0.13650537 0.16154368 0.22219543 0.039327446 0.061057147 -0.3038845
0.03741258 -0.063567065 -0.097923584 -0.015312655 -0.04350489 -0.09182795 -0.3191885 0.15857242
-0.6253783 0.30532834 0.06992474 -0.38672432 -0.34004703 0.14676899 -0.12639816 -0.15337871
-0.28960866 -0.45658946 -0.21037397 -0.24862722 0.18117392 -0.86025685 -0.27646413 -0.24797298
-0.03799113 -0.23845299 -0.028465955 0.14125262 0.2550905 -0.5575343 -0.35258138 -0.23244222

fc1.bias f4 [64]
00000000: 1fd5 a23d 91ab 0cbe 84c6 28be 883a 073b
00000010: 275d 353e f3bf 06be f793 3fbe 26a1 a53d
00000020: 5e52 583d 4345 a2be 7615 ad3d 1c76 8a3e
00000030: 6976 393e 1d0d 843d b7c8 b83b cf90 06be
00000040: f180 b83d 2dd1 933b e223 7dbd 6add ecbd
00000050: be3c 9fbc 13f3 bd3c c7d0 fd3d 8d1e 95bd
00000060: c801 d8bd 8491 853e b603 32bd 2c34 7238
00000070: 62c9 d03d 4910 83bb c60c 283d 4189 f1bd
00000080: 01a4 8a3e ea21 1cbc 6a35 2ebe f42a 143e
00000090: e98f 28be f74b b53c b833 95bd 355c 63be
000000a0: eb1c 4bbe c912 94bb b0ea 09be b190 4c3e
000000b0: a384 6d3a 0af8 b2bd 8527 983d a6c4 c8be
000000c0: de68 c3bc d0ca 88bd 7b2c fbbd 14b8 f9bd
000000d0: 1b57 d4bd 3362 6bbe ffef fdbd 1e12 5dbc
000000e0: 0745 b33d 61e7 8ebc 20fd 2ebd daa0 32be
000000f0: 0e07 b6bd a40e 2f3c c8be eabb 5aa0 0cbd
0.07950806 -0.13737322 -0.16481978 0.0020634253 0.17711316 -0.1315916 -0.18708788 0.08087377
0.052812926 -0.31693467 0.08451359 0.27043235 0.18111576 0.06447814 0.0056391614 -0.13141178
0.090089686 0.0045110197 -0.0618018 -0.11565669 -0.019438144 0.023187196 0.12393337 -0.07281218
-0.10547215 0.26087582 -0.04346057 5.7745885e-05 0.10194661 -0.003999744 0.041027807 -0.11793757
0.2707825 -0.00952957 -0.17012563 0.1446951 -0.16461147 0.02213095 -0.07285255 -0.22203143
-0.1983525 -0.004518841 -0.13468432 0.1997707 0.0009060597 -0.08738716 0.07429413 -0.3921253
-0.023853716 -0.066793084 -0.12264343 -0.12193313 -0.103681765 -0.22986679 -0.12399291 -0.013493089
0.087534 -0.017444314 -0.042721868 -0.17444173 -0.08888064 0.010684643 -0.007163856 -0.03433261

fc2.weight f4 [64, 64]
00000000: c7ec 78bd a6d3 e6bd c9a3 f7bd 90c6 d73e
00000010: af0d 0cbe 67f9 4bbe 3a02 71be 2083 3c3d
00000020: 1f3f 413d f2ef b4be 9c4b 20bd e6ad 2ebf
00000030: ee1d 463e f5cd 913e a87a edbe a11d 7e3e
00000040: 5cc9 bfbd 9d82 3fbe 88c5 cbbe edac e63d
00000050: 1b62 3cbe d453 48bf 40b3 afbe 0473 e8bc
00000060: 3017 9cbe d1d5 95bd c62e 7e3c edfb 57bf
00000070: bae0 9a3e 9c67 613d b84d 8b3e f0fb 37bf
00000080: 9124 2b3f 1521 043f 4f71 4ebd 7448 6b3d
00000090: 57fe bc3c 8ac9 cd3e 47e9 923e d235 4ebf
000000a0: 3a8a b9be 085d acbd 0537 003f 7073 ebbd
000000b0: dd0a 9a3e 134d 63bf eaee f0bd 9362 183d
000000c0: d42e ddbd 628e f0bd fe6e 32bf c986 53be
000000d0: 5455 1abe 44cd 353e 4743 d1be d223 f8be
000000e0: 4d7c 143e 6c72 9cbd 61ae 6ebf 0149 a73c
000000f0: 4242 c53e 37cb 043b da4d 063e c21a 1dbf
00000100: f0d1 87be 4afe 7abe cccc d9be b22d 1fbe
00000110: 196b 073d 1e10 91bd 1a6e 36bf f2b1 1a3f
00000120: 3658 a2bc 1c7c 75bd 6511 99be 49a2 9e3d
00000130: 5d6e 01be 8ccb 423e 6c3b 7bbf 08a7 d5be
00000140: b8fc a7bd 06b5 c33e 1b78 a63e 0903 f3be
00000150: c086 953e f1b3 11be fb8c 223e 1823 acbf
00000160: a186 373e da7f 503e 1497 5f3d b2fe 54be
00000170: c777 fa3d 2572 22be 42c4 8c3e 354e bd3c
00000180: 774b 693e 1da3 9fbd d0d6 b3be c248 5bbc
00000190: a77d 513e 6c5c 9bbe 59fe 993d 9797 a13e
000001a0: 593a 42be abde 653e 2a6c e13b 8961 64be
000001b0: f2d9 733c b25f bcbe 289f 59bf d2e4 bcbd
000001c0: 569e 3d3e 4fad dcbd 4361 063d f648 403e
000001d0: bc98 babc b201 93bd 70e9 b9be 1e25 04bf
000001e0: 9fec 263c 90be 0c3e 1157 ac3d f629 c9be
000001f0: c4e9 79be bcdb e63c b19e f23c f791 663d
00000200: 6ee0 9abe 2d86 05be f27f 533e 6089 83bc
00000210: 44cf 093e fdbb 003d f00d d6be fa84 c5bd
00000220: a845 92be b7d0 913c bcbb a5bc 12d9 a53d
00000230: 0bf4 1fbe b9ed 233e d250 4f3e 04d9 68be
00000240: 75cb 35be 3480 1e3d cde7 75be ffe3 c83d
00000250: bcdb 483e 978f 08bd d14a 2ebd d889 813d
00000260: 408e 2fbd 3d58 ba3e 3457 003f 3e1d 463e
00000270: 8da5 b7bd 73bb 2abe 6646 86be 4dfd 9ebd
00000280: 56a0 393e 4088 c5be 98ba d9be 5078 7d39
00000290: 5fc1 4a3e 7f49 bebb e34f 883e 6172 72be
000002a0: 9ff7 aa3e efb3 11be 6526 323e 990c 5cbd
000002b0: d711 dabd 8165 f9bd 4d0e b13e 6c23 5fbe
000002c0: 3c8f 283e a5e5 9abd ce14 93be 5b43 ae3b
000002d0: cf0f fabd 3c5c bfbc aad3 48bf 7557 0fbe
000002e0: 0701 60bd 36e6 4b3d b3db 76bd 9cea f1be
000002f0: 7f2a 123b cc48 a6bd 4425 073e 518b 1ebc
00000300: 4944 04bf ad4a 97be 2bc2 5ebe 4321 10be
00000310: 1e11 0c3e d597 81be 19a3 efbd 5648 3fbf
00000320: 2ea9 5d3d df17 62bd e845 853d e7cc 063e
00000330: 75cb fe3d 1ad5 343e b8d3 de3e c263 603e
00000340: e3b2 82bc 0081 2e3e 2d20 c0bd 4470 d63d
00000350: e341 f73d b98e 7ebe 2758 403d 725b 693d
00000360: da44 b33d 41d7 eebd 6ddb 8dbe bf51 c63e
00000370: 709b 583e af50 d9be 865f 8c3e aeec 62be
00000380: ff5b 17be 0e05 30bf 9753 11bf 8f4e 77b9
00000390: ad00 13bf 3cf8 ca3e 88d8 f5bd 0d52 38bf
000003a0: 0d24 1ebe a55c 17be 6c0d ddbe b3de bfbd
000003b0: edf7 94be 6d0a 36bc 4b63 dc3d 605c dabd
000003c0: 58af 403e bd78 d9be 57b4 76bd 181b 9cbe
000003d0: 1d60 d63d cd4f b83e d295 6abe 0a5c 66be
000003e0: 6e61 9ebe 9161 ccbc b0a6 043e d881 6abe
000003f0: 9a5c 093e f658 cf3c d1a2 a0be e478 7c3d
-0.060772683 -0.112708375 -0.120917864 0.4214368 -0.13677095 -0.19919358 -0.23536006 0.046023488
0.047179338 -0.35339314 -0.039134607 -0.682341 0.19347355 0.28477445 -0.46382642 0.2481599
-0.09364578 -0.18702169 -0.39799142 0.11263452 -0.183968 -0.7825291 -0.34316444 -0.028375156
-0.3048644 -0.07316173 0.015514081 -0.84368783 0.30249578 0.05503045 0.27207732 -0.718688
0.6685267 0.5161298 -0.05040103 0.057442144 0.023070497 0.40192825 0.286936 -0.80550873
-0.3623827 -0.08416182 0.50083953 -0.11496627 0.30086413 -0.8878948 -0.11764319 0.037203383
-0.107999474 -0.11745907 -0.6970061 -0.20656885 -0.15071613 0.17754084 -0.4087164 -0.4846483
0.14500542 -0.07639012 -0.9323483 0.020420553 0.38527113 0.0020262727 0.13115636 -0.61368954
-0.26527357 -0.24511066 -0.4253906 -0.15544775 0.03306112 -0.07083152 -0.7126175 0.60427773
-0.019817453 -0.059932813 -0.29896083 0.07745797 -0.12639757 0.1902296 -0.98137546 -0.41728997
-0.08202499 0.38224047 0.32513508 -0.47463253 0.2920437 -0.14228798 0.15874092 -1.344821
0.1792245 0.20361272 0.05458744 -0.20800284 0.12229877 -0.15863855 0.27493483 0.023108581
0.22782694 -0.07794783 -0.35124826 -0.013384046 0.20458089 -0.3034395 0.07519216 0.31560966
-0.1896757 0.22448222 0.0068793492 -0.22302832 0.014883505 -0.3679176 -0.8500848 -0.092233315
0.18517432 -0.107752435 0.0328076 0.18777832 -0.022777908 -0.07178058 -0.3631091 -0.51619136
0.010188251 0.13744569 0.08415044 -0.39289826 -0.24405581 0.02818095 0.029616686 0.056291547
-0.3024935 -0.13039465 0.20654276 -0.016056716 0.13457972 0.03142928 -0.41807508 -0.09644504
-0.28568769 0.017799718 -0.02023112 0.080980435 -0.15620439 0.16008653 0.20245674 -0.22739035
-0.17753394 0.038696483 -0.24014206 0.09809112 0.19615072 -0.033340063 -0.04255182 0.0632512
-0.04286027 0.36395445 0.5013306 0.19347093 -0.08967123 -0.16673069 -0.26225585 -0.07763157
0.1812757 -0.38580513 -0.42525172 0.0002417278 0.19800328 -0.0058071013 0.2662345 -0.23676445
0.33392045 -0.14228795 0.17397459 -0.05372295 -0.10647934 -0.121775635 0.34581223 -0.21790856
0.1646089 -0.075633325 -0.2872681 0.005318088 -0.122100465 -0.02335941 -0.78447974 -0.13998206
-0.05468848 0.049780093 -0.060268115 -0.47249305 0.0022303162 -0.08119354 0.1319781 -0.00967677
-0.51666695 -0.2954916 -0.21753757 -0.14075188 0.13678405 -0.2531115 -0.1170103 -0.7471975
0.05411642 -0.055198546 0.06507474 0.13164102 0.1244115 0.17659417 0.43520904 0.21913055
-0.01595444 0.17041397 -0.09381137 0.10470632 0.12073114 -0.24859132 0.04695907 0.056971975
0.08753367 -0.1166215 -0.2770647 0.38734242 0.21153045 -0.4244437 0.2741663 -0.22160599
-0.14781187 -0.6875771 -0.5676817 -0.00023585021 -0.57422906 0.39642513 -0.12004191 -0.720002
-0.1544344 -0.14781435 -0.43174303 -0.093686484 -0.29095402 -0.011110884 0.10761126 -0.106621504
0.18816888 -0.42474928 -0.06023058 -0.3048942 0.10467551 0.35998383 -0.22908714 -0.22496048
-0.30933708 -0.024948867 0.12954211 -0.22901094 0.13414231 0.025310975 -0.3137422 0.061638728

fc2.bias f4 [64]
00000000: 2c61 e43c 0b32 f0bd 05d8 9c3e 6b5c 96be
00000010: 44cb 883e 6616 88be 6aee 8b3d de98 78be
00000020: 36ca 403f 71f3 633f 300b 7bbe e39e 523f
00000030: c3f6 3e3f 9ca6 a83c 1d53 9dbd d1d0 4a3e
00000040: 25b4 2abd ae50 c4bc 6dc5 2dbd 018a 903e
00000050: bfa3 5c3e a816 323f 843e 9fbe 520c 97ba
00000060: 1816 5cbe fc55 63be 930f f13e b619 6bbd
00000070: fae8 21bd ede3 fb3e cdaf 1d3e a531 813e
00000080: b2d6 7abc dc91 213e 0961 d3bc c660 423d
00000090: 582a acbe 1567 7bbe 139d 403f 5899 f23b
000000a0: e517 1cbe d26e 743f ed24 273f e665 fabd
000000b0: d2ef 383e 0f5d 31be 8fc3 cd3d 09e3 44be
000000c0: 1e27 42be 7e82 a9bd 3e39 bb3d b69f 673f
000000d0: a0df 9e3e f79a 80bd 9de1 d63e 045e 8cbd
000000e0: a088 d3bd fb1d a0be 5aac 243e 9c5a 7ebe
000000f0: f011 d13d 3fd7 fe3e 5f48 03be f365 50be
0.027878366 -0.11728295 0.3063356 -0.29367384 0.2671758 -0.2657959 0.06832583 -0.24277064
0.7530855 0.8904334 -0.24515986 0.8227369 0.7459528 0.020587258 -0.07681868 0.1980622
-0.041675705 -0.023964252 -0.042424608 0.2823029 0.21546839 0.6956582 -0.31102383 -0.0011524057
-0.21492803 -0.22200769 0.47082195 -0.057397567 -0.039528824 0.4919733 0.15399094 0.25233188
-0.015309976 0.15778297 -0.025803106 0.04745557 -0.33626056 -0.24551041 0.75239676 0.007403534
-0.1524349 0.954816 0.6529072 -0.12226467 0.18060234 -0.17320655 0.100470655 -0.19227232
-0.18960235 -0.082768425 0.091417775 0.90478075 0.31029987 -0.06279557 0.41969004 -0.068538696
-0.103287935 -0.31272873 0.16081372 -0.24839252 0.102084994 0.49773595 -0.12820576 -0.2035139

fc3.weight f4 [4, 64]
00000000: f2ff 97bd e2f2 cdbd d572 ad3d 130e 33be
00000010: 018c 5e3e 4738 84be d696 333e 92eb 19be
00000020: eeb9 7d3e 2630 823e a027 5cbe 79e5 8c3e
00000030: 4e55 453e 570d dcbc 223a 0cbe 9ce3 9f3d
00000040: 07f9 2fbd 20bc 1e3e 9849 2c3f db26 313e
00000050: dbbe 143d 8aa7 973e aa71 46be de5a df3d
00000060: 53da 7b3e c133 9abe 8cee 423e b4f7 3c3f
00000070: c0ee cb3e 43c6 843e 229b 0e3f 6229 e23c
00000080: 0be9 0ebf 5143 df3e b7b5 063c 50c5 443e
00000090: b900 3b3d c829 3dbe b29c 733e 7a79 99bd
000000a0: 9860 9e3d 0c2a 8c3e f414 8e3e 84e9 873c
000000b0: ec96 6f3e ea70 91be 39c6 503d 1f97 8f3d
000000c0: dad0 07be a08d a8bd 6bf0 cc3d bd4d ae3e
000000d0: f878 3c3e 6ecd 463d c86e 383e 8b25 233e
000000e0: 912d 35bf 4217 9cbe da19 803e 024d b7bc
000000f0: 617e 7d3e 8d51 193e 61a3 2abe 0cf7 cb3d
00000100: 68d6 253e ce73 babc 75b9 623e 988d acbc
00000110: 1da5 7e3e 5e6b a03a 58c1 503e 9bbd a0be
00000120: 5e81 2e3e 670d 863e d33f 4abe 1413 973e
00000130: bcff 4f3e 57fe d9bc 9ffb cdbd cb14 9d3e
00000140: 7012 a1bd 8ae1 d43e a816 f33e bbc3 463e
00000150: be17 f83d 6530 983e 5946 adbe ee71 803e
00000160: bf54 0e3f 8561 c93d 5137 333e c492 f03e
00000170: 28b7 cd3e 7440 783e 1fbe e73e 6a5e 8c3d
00000180: 07c4 6a3c f9f1 e63e c056 6b3e f6b0 cb3e
00000190: cb01 88bd 743f 51be cebc 853e e78e 18be
000001a0: 2c5c e73d b8dc 8c3e dadb 643e 658b 583e
000001b0: bda0 893e 534e 45be bc9b 073e 807f 9dbd
000001c0: 6cbf 11be a7d7 943d 312f 9c3d 9181 7f3e
000001d0: 4ef1 9d3e 062b ac3e e6d6 a33e a82e f73e
000001e0: 299d e33b 3525 f73d b3e1 4e3e d72e 803d
000001f0: 00c0 a93e 58c6 6c3e bc0a 08be aaf3 9b3e
00000200: 11b0 e3be 8b8e ac3d 04e9 a13e 84b4 45be
00000210: 4710 943e f9f5 423e 6958 d83d ad01 7ebc
00000220: d803 3f3e c1f0 783e 5ca7 7abe bf5d b63e
00000230: 6b79 8c3e 3cd1 1bbf 9a55 34be ddba bc3e
00000240: 9cb1 003d c094 533e 72d5 e83d 162f 493e
00000250: dacc 503e 5da1 a63e 4f01 a1be b407 a43e
00000260: 0ea1 203f 5a56 26bf cbbf ba3e b966 323e
00000270: cfd5 163e 16f9 723e 5b46 cd3e 6f22 1cbe
00000280: c97a 19bf c6f4 a23d f624 c43e 7e1b ac3e
00000290: ed2a 9f3c 4630 7cbe 3c2e 6e3e 97b0 873e
000002a0: 6cd0 8b3d cdb2 893e 3024 b73e cc85 dd3e
000002b0: 3e60 f83d 02ce e2be d606 143e 188b 243f
000002c0: a0f0 6a3e 547e e53c 9b0d acbe 7214 983e
000002d0: 3f05 ea3d 4eb6 283e a225 0c3e 02c9 cd3e
000002e0: 04e0 fdbe 7cc9 d7bd 1409 a0bd 2338 24be
000002f0: 7f8f 59bd fe0c a03e 851f 5c3e 12c3 523e
00000300: dcab 4f3e 5bf8 213f 60bf 463e b286 86be
00000310: 59d1 193d 25f0 923d bfc8 903c e7f8 9cbe
00000320: ca49 8e3e 753c 963e 9654 6e3d 5dc5 323e
00000330: 0bd4 a93e 8c4e 0a3e 1d5e 80be 5c30 913d
00000340: 7270 f03d ba5d d1bb e34b d53e afb1 1e3e
00000350: befb 1abe 51e9 b73e dea1 21be 5f1d af3e
00000360: e0b5 f0bd c2b3 79be 7268 cb3e 8d29 a93e
00000370: d9d3 0f3f 9a00 bd3d 8d3d d53e 48c8 f03d
00000380: d65e 57be 26a6 5a3e 0cba 09be c726 243e
00000390: ea77 ebbe 5f1c c4be fb82 853e 4133 b83e
000003a0: aa51 8abd 648e 9d3e 7e3c 993e 4620 09bf
000003b0: 719f 543e 19e7 d5be 254a 06be 34a2 6bbf
000003c0: 2c4f a73c 056d 033f e9ae 8e3e 38b1 6f3e
000003d0: 0836 0e3e 3469 f13e 4db2 dd3e 558e 983e
000003e0: 5b63 aebd f29f ed3c 8655 303d b382 09bf
000003f0: b76e 04be 774c 383e c82c 67be b613 223f
-0.074218646 -0.10056092 0.08469168 -0.17485838 0.21733095 -0.25824186 0.17538008 -0.15031269
0.24777958 0.2542736 -0.2149949 0.27518824 0.19270822 -0.02686183 -0.13694051 0.07807085
-0.0429621 0.15501451 0.67299795 0.17299978 0.036314826 0.2962001 -0.19379297 0.109060034
0.24595003 -0.3011761 0.19036311 0.73815465 0.3983059 0.25932512 0.55705464 0.027607623
-0.55824345 0.43606046 0.008222035 0.19215894 0.045654986 -0.1847297 0.23790243 -0.07493873
0.077332675 0.2737583 0.2775036 0.016590841 0.23397416 -0.2840646 0.05097029 0.07011246
-0.13263264 -0.08230138 0.100067936 0.34043685 0.18405521 0.048535757 0.1801101 0.1593229
-0.70772654 -0.30486494 0.25019723 -0.022375587 0.24755241 0.14972515 -0.16663887 0.0995923
0.1619507 -0.022760298 0.22141059 -0.02106361 0.24867673 0.0012239029 0.20386255 -0.31394657
0.17041537 0.261821 -0.1975091 0.29506743 0.20312399 -0.026610537 -0.100577585 0.30679926
-0.07864845 0.41578323 0.47478223 0.19410603 0.121139035 0.29724422 -0.33842734 0.2508692
0.5559806 0.098330535 0.1750157 0.46986973 0.401788 0.24243337 0.45262238 0.068539456
0.014328963 0.45106485 0.22982311 0.39783448 -0.06640967 -0.20434362 0.2612061 -0.14898263
0.11296877 0.27512145 0.22349492 0.21146925 0.26880446 -0.1926816 0.13243002 -0.07690334
-0.14233178 0.07267695 0.076261885 0.2495177 0.30848163 0.33626574 0.31999892 0.48277783
0.006946225 0.120676436 0.20203285 0.06258934 0.33154297 0.23122537 -0.13285345 0.30459338
-0.44470266 0.084256254 0.3162309 -0.19307142 0.2891867 0.19039144 0.10563738 -0.015503329
0.1865381 0.2431059 -0.24477905 0.35618398 0.27436385 -0.6086614 -0.1761078 0.36861315
0.03141938 0.20662212 0.113688365 0.19646868 0.20390645 0.32544985 -0.3144631 0.32037127
0.6274575 -0.6497551 0.3647445 0.17421998 0.14729999 0.23727831 0.4009274 -0.1524751
-0.5995298 0.07956843 0.3830945 0.33614725 0.019429648 -0.2462779 0.23259825 0.26501915
0.06826863 0.26894227 0.35769796 0.4326614 0.12127732 -0.44297796 0.14455733 0.6427474
0.22943354 0.02801434 -0.3360413 0.297031 0.11426782 0.16475794 0.13686231 0.4019242
-0.49584973 -0.10536477 -0.078142315 -0.1603704 -0.053115364 0.31259912 0.21496399 0.20582226
0.20280403 0.63269585 0.19408941 -0.2627464 0.037553165 0.0717471 0.017673848 -0.30658647
0.27790672 0.29343 0.058186136 0.174581 0.33169588 0.13506526 -0.25071803 0.07089302
0.11740197 -0.006389347 0.4165946 0.15497468 -0.15135095 0.35920194 -0.15784404 0.34202096
-0.1175344 -0.24384978 0.39728123 0.33039513 0.5618263 0.0922863 0.41648522 0.117569506
-0.21032271 0.21352443 -0.13449878 0.16030417 -0.45989925 -0.38302895 0.26076493 0.35976604
-0.067538574 0.30772698 0.29928964 -0.5356487 0.20763947 -0.41777876 -0.13114221 -0.9204438
0.020423494 0.51338226 0.2786782 0.23407447 0.13887799 0.47150576 0.43300095 0.2979609
-0.08515044 0.029006932 0.04305031 -0.53715056 -0.1293286 0.17997919 -0.22575676 0.63311327

fc3.bias f4 [4]
00000000: 8a6b 333f da81 003f 89b3 c03e 6b80 ef3e
0.70085967 0.5019814 0.37636974 0.46777663
